[net]
# Testing
batch=1
subdivisions=1

width=640
height=640
channels=1
momentum=0.9
decay=0.0005

[convolutional]
batch_normalize=1
filters=72
size=3
stride=2
pad=1
activation=leaky

[convolutional]
batch_normalize=1
filters=96
size=3
stride=2
pad=1
activation=leaky

[convolutional]
batch_normalize=1
filters=96
size=3
stride=1
pad=1
activation=leaky

[route]
layers=-1
groups=2
group_id=1

[convolutional]
batch_normalize=1
filters=72
size=3
stride=1
pad=1
activation=leaky

[convolutional]
batch_normalize=1
filters=72
size=3
stride=1
pad=1
activation=leaky

[route]
layers = -1,-2

[convolutional]
batch_normalize=1
filters=96
size=1
stride=1
pad=1
activation=leaky

[route]
layers = -6,-1

[maxpool]
size=2
stride=2

[convolutional]
batch_normalize=1
filters=144
size=3
stride=1
pad=1
activation=leaky

[route]
layers=-1
groups=2
group_id=1

[convolutional]
batch_normalize=1
filters=96
size=3
stride=1
pad=1
activation=leaky

[convolutional]
batch_normalize=1
filters=96
size=3
stride=1
pad=1
activation=leaky

[route]
layers = -1,-2

[convolutional]
batch_normalize=1
filters=144
size=1
stride=1
pad=1
activation=leaky

[route]
layers = -6,-1

[maxpool]
size=2
stride=2

[convolutional]
batch_normalize=1
filters=160
size=3
stride=1
pad=1
activation=leaky

[route]
layers=-1
groups=2
group_id=1

[convolutional]
batch_normalize=1
filters=144
size=3
stride=1
pad=1
activation=leaky

[convolutional]
batch_normalize=1
filters=144
size=3
stride=1
pad=1
activation=leaky

[route]
layers = -1,-2

[convolutional]
batch_normalize=1
filters=160
size=1
stride=1
pad=1
activation=leaky

[route]
layers = -6,-1

[maxpool]
size=2
stride=2

[convolutional]
batch_normalize=1
filters=320
size=3
stride=1
pad=1
activation=leaky

[convolutional]
batch_normalize=1
filters=160
size=1
stride=1
pad=1
activation=leaky

[convolutional]
batch_normalize=1
filters=320
size=3
stride=1
pad=1
activation=leaky

[convolutional]
size=1
stride=1
pad=1
filters=39
activation=linear

[yolo]
mask = 6,7,8
anchors=5,30,30,5,30,30,10,60,60,10,60,60,20,120,120,20,120,120
classes=8
num=9
iou_loss=ciou
ignore_thresh = .8
truth_thresh = 1

[route]
layers = -4

[convolutional]
batch_normalize=1
filters=144
size=1
stride=1
pad=1
activation=leaky

[upsample]
stride=2

[route]
layers = -1, 23

[convolutional]
batch_normalize=1
filters=160
size=3
stride=1
pad=1
activation=leaky

[convolutional]
size=1
stride=1
pad=1
filters=39
activation=linear

[yolo]
mask = 3,4,5
anchors=5,30,30,5,30,30,10,60,60,10,60,60,20,120,120,20,120,120
classes=8
num=9
iou_loss=ciou
ignore_thresh = .8
truth_thresh = 1

[route]
layers = -3

[convolutional]
batch_normalize=1
filters=96
size=1
stride=1
pad=1
activation=leaky

[upsample]
stride=2

[route]
layers = -1, 15

[convolutional]
batch_normalize=1
filters=144
size=3
stride=1
pad=1
activation=leaky

[convolutional]
size=1
stride=1
pad=1
filters=39
activation=linear

[yolo]
mask = 0,1,2
anchors=5,30,30,5,30,30,10,60,60,10,60,60,20,120,120,20,120,120
classes=8
num=9
iou_loss=ciou
ignore_thresh = .8
truth_thresh = 1
